gordon_stage2_random.pth (torch, 764976 bytes, 3 tensors)

fc1.weight f4 [93, 2048]
00000000: d0fa 8db9 176d 44bb 0aad 0fbc bca1 aebb
00000010: 20ed eb3a c57f 18bb 7050 5fba 519d b9bb
00000020: 6095 deba 2205 a5ba 2787 99ba c69a 94bb
00000030: 23c4 c8bb a7b0 7cbb aacf 3cbb 9d40 0cbc
00000040: e2e5 f038 49a9 2d3a 5247 8fb9 e988 4dbb
00000050: 7db4 58bb ad08 b5bb efe0 9dba beac 97bb
00000060: d771 14bb ebb6 59bb 2918 d5ba 1263 bdba
00000070: 674a 83ba 4811 e3bb 21c4 f7ba 6f48 e8bb
00000080: 8c7e a3bb 4603 80bb 034b 81bb 5562 41bb
00000090: 6d9f 66bb 023e 8f39 f38f d6ba 6120 6fbb
000000a0: 80c0 26bb b2c3 2abb 1c6f ecba 6433 03bc
000000b0: 702d adbb 034b 35bb 87aa aeba dfbe aabb
000000c0: d81d 3ebb 1ce3 c1bb 8fb1 a9bb c352 c1bb
000000d0: 9417 3fbb e17d 57bb 1be5 bfba 4b73 01bb
000000e0: 39ed 8dbb d53d 2eb9 b20b 03bb ab68 8f3a
000000f0: 07fa ccbb 6e81 92bb 683c 83bb ba56 9abb
00000100: c7b1 e0ba 3c68 4dbb 7ea7 ac38 24bb 1ebb
00000110: 3f51 f8ba 712d 14b9 9677 9ebb 07e9 dfb8
00000120: 4d3b ed39 ffbd a5bb f681 43bb de1e 62bb
00000130: 42f9 8dba 9a81 2bbb 7bb0 f7bb 1c49 4cbb
00000140: 7a8d 85bb d4ad 1bbb 53b2 30bb 0329 55bb
00000150: 565a 5abb 2d70 20bb 8bd4 27bb 6b3c c1ba
00000160: 2fbc caba aea2 77bb 2d02 07bc 3bba 73bb
00000170: 101e 73ba 6e22 1aba 05f9 0fbc ecb3 e4ba
00000180: ba27 24bb e7d3 76bb 5f02 3dba 1fba 45b9
00000190: d2ee a039 93e9 75bb 7a4d 2bbb 8a9f 7bbb
000001a0: b355 a5bb f798 ccb9 23c7 bbbb b201 c9ba
000001b0: 0b9f a5b9 e89e 7abb 3ae6 acba a8ff c3ba
000001c0: 0dc4 6cbb eab0 4d39 9617 b0bb de8a a5bb
000001d0: 3d06 8ebb 3916 81ba 00ba 28bb 8356 b0ba
000001e0: 4f03 efbb bb5a 5bbb bd4d 2bbb b9ff f4ba
000001f0: 95be 2fbb 0d65 f5b8 948a 0abc 10cf c5bb
00000200: 5e32 9fbb aece 93ba 9abc be38 668e 28bb
00000210: 7384 e4bb 468e a3bb aee0 2ebb a6ca 48bb
00000220: 5865 81bb 76c2 073a 90f2 afba a4a8 23ba
00000230: ee32 8ebb d53a e2b9 1542 bfba 9750 77b7
00000240: 782f b8bb 4add 17bb 376c d4bb 698c 10bb
00000250: d996 18ba 9b60 09bb 2472 44bb 26ff 08bb
00000260: a980 3bbb 3ff7 5abb 4fc6 ea39 5908 2ebb
00000270: 2153 50bb 8314 46bb f14c b8bb 93ed 18bb
00000280: 178b e8b8 efb7 91bb c3d2 83bb 93e9 35bb
00000290: 96a8 b4ba ae71 b7bb e3cf e6ba d96b 8e39
000002a0: 20be c5ba ef40 27ba d3d2 223a 06ec 1fbb
000002b0: c546 fdba a8ba 39bb 039a 5cbb 57ed bcbb
000002c0: 410d 25bb 7f44 1abb df1b b9bb 6423 63bb
000002d0: 5409 7fba 7593 eb3a 4af7 b6b7 e9fa 18bc
000002e0: 216a aeba ac0e 96bb c1b3 99bb a34b 12bb
000002f0: 4656 74ba 5471 b1bb 10c7 d6ba f849 9abb
00000300: 603e adba 37d3 97bb 55bc bc37 3d9a 81bb
00000310: f9ae bfba f850 0fba f4e8 50bb dbf9 10bc
00000320: 38ee f5ba 9aad 65bb 1498 eeba 41c1 97bb
00000330: 1516 9cbb 85d4 32bb 2e04 8fbb 4f86 02ba
00000340: 7e1b 02bb f6fc 823a 09ed 94bb f56e 73bb
00000350: 6791 00bb c6de 5cba 236c b0bb 7ca9 b3bb
00000360: 183c 94bb afda 94ba 8a15 f2bb 2b0a 06bb
00000370: 83c2 d0bb ba34 aeba ee0c e4bb bfcd a43a
00000380: 622c babb 612b 3fbb 59f4 8fbb 1431 44bb
00000390: d2bc a7bb 290d 19bc 495b ec3a 6ef0 96bb
000003a0: e43c 9aba de67 d9bb c631 5ab9 8e70 bcbb
000003b0: d056 58bb e45f 60bb 3b0f 78bb e3dc 7cbb
000003c0: b042 04bc 5655 d9bb af6d f8ba acd0 d8bb
000003d0: 80fc 59bb 3af4 b636 aaa6 63bb ca58 60bb
000003e0: 1b82 9039 b8ad 4db9 cf78 d63a fc3b 34bb
000003f0: e1ed 38bb 1ea1 0abb d93b 84bb a1d7 4bbb
-0.00027080486 -0.002997225 -0.008769283 -0.005329339 0.0017999746 -0.0023269516 -0.0008518761 -0.0056645055
-0.0016981773 -0.0012590031 -0.0011713252 -0.004535052 -0.006126897 -0.0038557441 -0.00288103 -0.008560327
0.00011486911 0.0006624652 -0.00027328223 -0.0031362122 -0.0033066564 -0.005524716 -0.0012045185 -0.004628747
-0.0022650862 -0.00332206 -0.0016257811 -0.0014449081 -0.001001668 -0.0069295503 -0.0018903055 -0.007088713
-0.004989451 -0.00390664 -0.0039457097 -0.0029508073 -0.003519024 0.00027321285 -0.0016369805 -0.0036487805
-0.0025444329 -0.0026056585 -0.0018038484 -0.008007858 -0.0052849576 -0.0027663119 -0.0013325968 -0.005210742
-0.0029009487 -0.005916966 -0.0051786373 -0.0058997585 -0.002915834 -0.0032881426 -0.0014640422 -0.0019752558
-0.0043312577 -0.00016616967 -0.0019995985 0.0010941228 -0.0062553915 -0.0044709956 -0.0040050037 -0.0047100456
-0.0017142826 -0.0031342646 8.232797e-05 -0.0024220431 -0.0018945112 -0.00014131308 -0.004836033 -0.00010676873
0.00045248345 -0.0050580497 -0.0029832101 -0.0034503262 -0.0010831731 -0.0026169778 -0.00755888 -0.0031171506
-0.004075703 -0.0023754733 -0.0026961758 -0.0032525666 -0.0033318005 -0.0024480924 -0.0025608863 -0.0014742737
-0.001546746 -0.0037786174 -0.008240265 -0.003718986 -0.0009274194 -0.0005879764 -0.008787398 -0.001744864
-0.0025048093 -0.0037662925 -0.0007210131 -0.0001885672 0.00030695513 -0.0037523254 -0.002613871 -0.0038394653
-0.0050456165 -0.0003902388 -0.005730526 -0.0015335588 -0.0003158975 -0.0038241688 -0.0013191171 -0.0014953511
-0.0036127598 0.00019616229 -0.0053739054 -0.0050519546 -0.0043342398 -0.0009848542 -0.002574563 -0.0013453517
-0.0072940956 -0.0033470828 -0.0026138865 -0.0018691934 -0.0026816477 -0.000117013326 -0.008455891 -0.0060366467
-0.004858299 -0.0011276805 9.095036e-05 -0.0025719642 -0.006973797 -0.0049913255 -0.0026684212 -0.0030638366
-0.0039488487 0.0005178818 -0.001342373 -0.0006243086 -0.0043395674 -0.00043149912 -0.0014591838 -1.4741111e-05
-0.005620893 -0.002317267 -0.006482627 -0.0022056347 -0.0005820818 -0.0020962122 -0.002997526 -0.0020904033
-0.0028610623 -0.003341153 0.0004477971 -0.0026555269 -0.003178783 -0.0030224628 -0.0056244065 -0.0023334965
-0.000110885296 -0.0044469754 -0.0040229275 -0.002775763 -0.0013783153 -0.0055982685 -0.0017609562 0.00027164703
-0.0015086569 -0.00063802203 0.0006211225 -0.0024402156 -0.0019323459 -0.0028340016 -0.0033661134 -0.005765598
-0.0025184902 -0.0023539362 -0.0056490744 -0.0034658546 -0.0009728868 0.0017973023 -2.1811244e-05 -0.009337165
-0.0013306775 -0.0045793857 -0.004690618 -0.0022322915 -0.0009320717 -0.005415121 -0.001638623 -0.004708525
-0.0013217442 -0.004633333 2.2499045e-05 -0.003955154 -0.001462429 -0.00054670824 -0.0031877132 -0.008848633
-0.0018763011 -0.0035046102 -0.0018203282 -0.004631192 -0.0047633746 -0.0027287316 -0.004364512 -0.000497912
-0.0019852812 0.0009993601 -0.0045448584 -0.0037144993 -0.0019617917 -0.000842553 -0.0053839847 -0.0054828506
-0.0045237653 -0.0011356677 -0.0073878216 -0.0020452838 -0.006370844 -0.001329086 -0.006959549 0.0012573524
-0.0056815604 -0.0029170143 -0.004393142 -0.002993648 -0.0051189447 -0.0093415165 0.0018032576 -0.004606298
-0.0011767414 -0.0066346964 -0.00020808642 -0.0057507223 -0.0033010729 -0.0034236843 -0.0037850875 -0.0038583807
-0.00807254 -0.0066324873 -0.0018953587 -0.0066166725 -0.0033262074 5.4524544e-06 -0.003473679 -0.003423261
0.00027562756 -0.00019615039 0.0016362908 -0.0027501574 -0.0028217959 -0.0021153162 -0.0040354547 -0.0031103867

fc1.bias f4 [93]
00000000: 2e41 17bc 652e 80bc 4dd0 97bc f5ce 9bbb
00000010: 587f b43b 398c 39bb 5bfb febc 822b 3fbc
00000020: b3d3 71bc 6cef eabc 1bee 81bc 88e1 ebbb
00000030: a096 4bbc a46d 0e3c d167 f9bb 970e 8dbc
00000040: 0306 8abc 98d5 00bc 404c d238 510d 65bc
00000050: 906a 59bc d801 4dbc 4b40 a6bc 6672 b0bb
00000060: f5c2 b6bc 340a 90bb 4f12 e8bc f0e9 5a3c
00000070: 35cf 31bc e68e bfbc 7e8f 3a3c 1f0e 053c
00000080: 6534 02bc 9668 213c 0494 80bc cb91 4fbb
00000090: eb86 1e3c f812 f8bc c130 d63b e781 603c
000000a0: c86c 94bb 3352 0fbc 8d9a e03a 9399 46bb
000000b0: 3aa3 b43a 45ad ffbc 7e74 c1bc 76ad bfbc
000000c0: cb63 153c 9349 93bc f64f f3ba 57c2 4bbc
000000d0: a096 a9bc 0fde 22bc 7634 1d3b 49a7 a7bc
000000e0: 03d8 f5bb e88c 45bc afdc c8bc 18a9 6ebc
000000f0: 0df5 1bbc a6ff 03bb 07de c7bc ab78 79bc
00000100: 35d3 f2bc 8ac1 abbb c0c2 8dbc 8a3e 2b3b
00000110: eccb f639 e9fa 593b 12be 80bb 4d45 93bc
00000120: e748 a9bc 148e 32bc 1bff 4dbb b6f3 3839
00000130: 03a1 04ba 7dc8 dcb9 4bea 42bc c4cd 4dbc
00000140: 3c93 aebb f19b d3bb eba6 1cbc 4a05 40bc
00000150: ce61 54bc fa41 e1bc 38a4 3bbc c13c 34bc
00000160: f360 ddbb 44f3 8dbc 4c09 14bc 5266 dbbc
00000170: 8829 31bc
-0.009231849 -0.015647123 -0.018531943 -0.004754896 0.0055083446 -0.002831234 -0.031125715 -0.011668088
-0.014759946 -0.028678618 -0.015860608 -0.0071985163 -0.0124260485 0.008693133 -0.007611253 -0.017218871
-0.01684857 -0.007863425 0.00010027783 -0.013980226 -0.013270035 -0.012512647 -0.02029433 -0.005384731
-0.02230976 -0.0043957476 -0.028329043 0.013361439 -0.010852625 -0.023383569 0.01138675 0.0081210425
-0.007947062 0.009851595 -0.01569558 -0.0031672593 0.009675722 -0.030282483 0.0065365736 0.013702846
-0.0045295693 -0.008747625 0.0017135903 -0.003030394 0.0013781555 -0.031210551 -0.023615118 -0.023398142
0.009118031 -0.017979419 -0.0018563259 -0.012436471 -0.020701706 -0.009940638 0.0023987568 -0.02046551
-0.0075025572 -0.01205752 -0.024519293 -0.014566682 -0.009518874 -0.0020141392 -0.024397863 -0.015226523
-0.029641727 -0.0052415775 -0.017304778 0.0026129805 0.0004707271 0.0033261126 -0.003928908 -0.017977381
-0.020664645 -0.010898132 -0.0031432572 0.00017638397 -0.0005059393 -0.00042111045 -0.01189668 -0.012561265
-0.0053276103 -0.0064577986 -0.009561281 -0.011720011 -0.012962772 -0.02749728 -0.011452727 -0.011000813
-0.006755942 -0.017327912 -0.00903542 -0.026782189 -0.0108131245

fc2.weight f4 [1, 93]
00000000: 1c64 9fbb 188e e83b f25b 92bd 1afa 47bd
00000010: 2fd8 143d 5662 ea3b 0e91 c1bc 0be4 6f3b
00000020: f155 c53c 5451 08bb 6552 943d 5825 aebb
00000030: 6752 473d 2483 053d e9a1 93bc 3dce 4b3c
00000040: 9074 4ebd 3b8b ae3d 1647 5dbd 59aa abbd
00000050: 8651 53bc 31ab 353d d2da 50bd d597 0cbb
00000060: 1fb3 8cbd 4532 f23c 373e 63bd 3202 033d
00000070: 5f49 b83b cb48 953c 8384 983d 5d5d 173d
00000080: 94bc 553d 8e2b 45bd e2a2 933d c605 a1bd
00000090: a175 ce3b 4511 dfbc f24f 9b3d 210e a93d
000000a0: 7de5 b9bb 408d 27bd c49d cbbb 55ab 04bb
000000b0: 09d2 aa3d d6ad 1abd f0ca 8a3c 3c11 82bd
000000c0: d1f6 ba3d 82e8 563d 91e5 85bd 13dc 68bd
000000d0: dd98 32bd 722c a33d 3d97 ad3d 558e 7b3d
000000e0: c2e2 913d a917 75bc 52da 11bd 52a5 fbbc
000000f0: c3eb 563d e448 03bd 1f4b 10bb 282e 8d3c
00000100: a6bc b53b bc71 91bb 231f 743d f40b e83c
00000110: a33e a8bd 00e7 323d 02d6 b6bb b0eb 19bd
00000120: fe00 32bd 098a a3bd aaa2 d03c da30 8bbd
00000130: 1199 bebd c779 91bd dc3d 27bd 8d9b 78bc
00000140: a90f 823d 5ad2 db3b 54e4 cbbb ae3a abbd
00000150: ee69 2cbc e0e6 783d c293 bd3d 8624 3abc
00000160: 2ec2 18bd 70a0 b33d c754 b9bd 54ce a5bc
00000170: a301 993d
-0.004864229 0.007097017 -0.071464434 -0.0488225 0.03633898 0.007152836 -0.023628738 0.003660443
0.024088832 -0.0020800428 0.07242278 -0.0053145103 0.04866257 0.03259577 -0.01802154 0.012439308
-0.05040413 0.0852265 -0.05402287 -0.083821006 -0.012897855 0.044352714 -0.050989933 -0.0021452804
-0.06870102 0.029564986 -0.055479255 0.031984515 0.005623981 0.018223187 0.074471496 0.036954273
0.052181795 -0.04813724 0.07208802 -0.07862429 0.0063006436 -0.027229914 0.07583608 0.08254648
-0.005673109 -0.04090619 -0.0062138755 -0.0020243723 0.08340842 -0.03776344 0.016942471 -0.063509434
0.09129108 0.05246783 -0.06537927 -0.056850504 -0.043602813 0.07967462 0.08476112 0.061415035
0.07123329 -0.014959254 -0.035608597 -0.03071848 0.052470934 -0.032051936 -0.0022017432 0.017233923
0.0055461703 -0.004438607 0.059600007 0.028326012 -0.08215072 0.04367733 -0.005579711 -0.037578285
-0.043457977 -0.079853125 0.02546819 -0.06796427 -0.09306539 -0.07103305 -0.040830478 -0.015173805
0.06350643 0.0067084255 -0.006222287 -0.08360802 -0.0105233025 0.060767055 0.09256698 -0.011361247
-0.03729456 0.087708354 -0.09049373 -0.020239986 0.07471015
