gordon_stage2_BioBERT.pth (torch, 723896 bytes, 3 tensors)

fc1.weight f4 [88, 2048]
-0.0061445353 -0.00086820533 0.00022817228 -0.0035992018 0.017896049 0.0039888592 -0.002461273 -0.0036042093
0.000689179 0.001739369 0.0046007554 -0.016471902 0.007712701 0.000235166 0.008216009 -0.013075497
0.014540227 -0.012957144 -0.00971152 -0.0010739422 0.0028419783 0.0057448517 0.008727993 0.012919162
0.0067544794 0.00079955294 -0.002889678 -0.0011108398 -0.008760911 -0.007820706 0.00039656254 -0.006826182
-3.487129e-05 0.009060053 -0.003771558 0.002503538 -0.007510769 0.008258901 0.0075872294 -0.0047462997
-0.0013338219 -0.0044280738 -0.011126478 0.017433804 -0.0102524655 -0.0064130155 -0.009018314 -0.008695173
-0.0056295358 0.0074073886 2.5044244e-05 0.0028772617 0.01069773 0.0014660227 0.009234453 0.009381282
0.0021075169 -0.014462546 -0.010924404 0.007348879 0.0099336775 6.5619075e-05 -0.010562748 -0.0049048592
0.0133143375 -0.002360481 -0.012223067 -0.017618788 0.0018361241 -0.00046532086 -0.0080083115 0.0045999037
0.0062645976 -0.008401404 0.015976133 -0.016906925 -0.0018924162 -0.00082071684 0.008198652 0.0042834976
0.002306653 0.016785037 0.0016441419 0.0014888262 0.0074988655 0.014035384 0.006779465 -0.016658368
-0.010529285 -0.0064987866 0.009056617 -0.008287796 -0.0072730524 0.0077075576 -0.003757165 -0.011837814
-0.0039331596 -0.012037327 0.0044000796 0.009088334 0.0007881509 -0.004822548 -0.0030591693 0.00014736262
0.008757371 0.0025578258 -0.0062688 0.006921645 0.008001658 -0.0014741627 -0.011230748 -0.0003238955
0.0150646195 0.0041932836 0.0032422799 -0.009204051 0.0026976746 0.0039767767 -0.0028568313 0.009919886
-0.0036818394 0.008845435 0.015849048 -0.0040431404 -0.015747799 2.7367389e-05 0.014792913 0.0070135645
-0.0010161496 -0.0018367481 -0.0037856165 0.0032399872 -0.004400996 0.009243692 -0.00964722 -0.0113409655
0.00610573 -0.004616684 -0.0057742293 -0.004894597 0.01351486 -0.005935521 0.01579404 0.011740787
0.004840396 0.001101636 -0.00048181013 0.009603716 0.009639963 0.0029979227 0.006894633 -0.003909105
0.004195653 -0.00048653295 -0.0038619712 0.0069357655 -0.007515177 -7.1570736e-05 -0.0007026369 -0.01567688
-0.0085122585 0.0135800205 -0.00975262 0.0069323336 -0.00661343 -0.003285617 0.008117275 0.00893104
-0.010391547 -0.0001936627 0.0031891551 0.008507423 0.0021974477 -0.0005072673 0.01095629 0.0024340448
0.008430711 0.001805672 0.0016512919 -0.013555417 -0.016788734 -0.0010382835 0.00095440424 -0.012842847
0.0005340345 0.0064961156 -0.005577794 0.0044939592 -0.0054739066 -0.0027378695 0.0032691744 0.009096981
0.004187485 0.0066629816 0.0146111045 0.0054333885 -0.00081931974 0.008098434 -0.010675093 -0.008549374
0.0041665547 -0.0030067272 0.0065964176 -4.7662194e-05 0.005878812 -0.0008133301 0.0013319876 0.0011234309
0.013714006 -0.001613941 0.0005866823 -0.012043009 0.006989896 0.0076859468 0.006218781 0.005133445
0.0006733863 0.007020597 -0.014632582 0.0019402213 0.008510059 -0.0013433194 -0.008031779 -0.0033818234
-0.0013500627 -0.0006043125 -0.0013628289 -0.0003978105 -0.0010805217 0.0060315616 0.004303211 0.0068687783
0.0011458298 -0.010894169 0.0025264204 -0.009470734 -0.009295969 -0.0044894787 0.011135713 -0.0068939445
8.7867185e-05 0.0011321647 -0.0026388702 0.0067880005 -0.00094969285 -6.502132e-05 0.016155912 0.005352338
-0.00035078407 -0.007947771 -0.00792125 0.00030166004 0.013072612 -0.00022528831 0.0024360449 0.002366501
00000000: 1958 c9bb 4698 63ba 8841 6f39 96e0 6bbb
00000010: bc9a 923c fab4 823b 4f4d 21bb 9934 6cbb
00000020: 05aa 343a 8afb e33a efc1 963b 15f0 86bc
00000030: d3ba fc3b e496 7639 709c 063c 9c3a 56bc
00000040: 223a 6e3c 334a 54bc 111d 1fbc 85c3 8cba
00000050: 7c40 3a3b 4f3f bc3b dbff 0e3c e5aa 533c
00000060: ae54 dd3b 1799 513a c160 3dbb 9999 91ba
00000070: ed89 0fbc 6b22 00bc b9e9 cf39 2aae dfbb
00000080: c342 12b8 9e70 143c 3e2c 77bb 6612 243b
00000090: e61c f6bb 5750 073c 4b9e f83b d986 9bbb
000000a0: a3d3 aeba 6019 91bb d54b 36bc 56d1 8e3c
000000b0: f5f9 27bc 4624 d2bb 8dc1 13bc 3376 0ebc
000000c0: f877 b8bb aeb9 f23b 1b16 d237 7190 3c3b
000000d0: 8845 2f3c 8f27 c03a 1a4c 173c f3b3 193c
000000e0: 441e 0a3b 51f4 6cbc 45fc 32bc ddce f03b
000000f0: ddc0 223c f99c 8938 600f 2dbc f1b8 a0bb
00000100: 6124 5a3c 4db2 1abb 4243 48bc 4755 90bc
00000110: 1aaa f03a 4ff6 f3b9 4b35 03bc caba 963b
00000120: 4147 cd3b 0ba6 09bc 61e0 823c 6480 8abc
00000130: f30a f8ba 6025 57ba a453 063c 955c 8c3b
00000140: 372b 173b c680 893c 3f80 d73a b824 c33a
00000150: 0bb9 f53b abf4 653c 4626 de3b 2177 88bc
00000160: 0683 2cbc c6f3 d4bb 3462 143c 89c9 07bc
00000170: c952 eebb ae8f fc3b c53a 76bb 64f3 41bc
00000180: bce1 80bb 3538 45bc 8b2e 903b 3ce7 143c
00000190: e99b 4e3a 7706 9ebb 587c 48bb 5a85 1a39
000001a0: 147b 0f3c 32a1 273b 816a cdbb f7ce e23b
000001b0: 6319 033c b138 c1ba 2c01 38bc 85d0 a9b9
000001c0: 98d1 763c d067 893b 6e7c 543b 97cc 16bc
000001d0: 78cb 303b 9f4f 823b ad39 3bbb 0487 223c
000001e0: 044b 71bb 72ec 103c ddd5 813c 527c 84bb
000001f0: 8701 81bc 0593 e537 f95d 723c 0bd2 e53b
00000200: 5330 85ba 0abf f0ba 1b18 78bb f755 543b
00000210: 3b36 90bb db72 173c 600f 1ebc 75cf 39bc
00000220: 9312 c83b 8d47 97bb bf35 bdbb db62 a0bb
00000230: 6e6d 5d3c c27e c2bb 8162 813c 6e5c 403c
00000240: 2f9c 9e3b c564 903a 769b fcb9 e858 1d3c
00000250: eff0 1d3c cc78 443b 60ec e13b f317 80bb
00000260: b07b 893b 5915 ffb9 2019 7dbb 6b45 e33b
00000270: e041 f6bb 3f18 96b8 2a31 38ba cd6c 80bc
00000280: 0077 0bbc bc7e 5e3c 74c9 1fbc a128 e33b
00000290: 79b5 d8bb 8253 57bb 52fe 043c 7f53 123c
000002a0: 4f41 2abc ef11 4bb9 2501 513b b862 0b3c
000002b0: 0e03 103b 22fa 04ba 0382 333c 7f84 1f3b
000002c0: f720 0a3c 4cac ec3a 2970 d83a 8a17 5ebc
000002d0: 8788 89bc 0317 88ba fc30 7a3a ce6a 52bc
000002e0: 73fe 0b3a 5edd d43b edc5 b6bb 1042 933b
000002f0: 755e b3bb d46d 33bb a53f 563b 810b 153c
00000300: 2c37 893b 2455 da3b 6a63 6f3c 910a b23b
00000310: 9ec7 56ba 4baf 043c 96e6 2ebc ac12 0cbc
00000320: 9887 883b 830c 45bb c326 d83b e4e8 47b8
00000330: 0da3 c03b a935 55ba 1696 ae3a 1640 933a
00000340: b6b0 603c e08a d3ba 95cb 193a 0a50 45bc
00000350: 7f0b e53b 65da fb3b ebc6 cb3b 7536 a83b
00000360: 3186 303a 090d e63b 7fbd 6fbc 064f fe3a
00000370: c66d 0b3c 5212 b0ba b997 03bc 95a1 5dbb
00000380: 96f4 b0ba ba6a 1eba f3a0 b2ba 3991 d0b9
00000390: 4ba0 8dba 68a4 c53b f301 8d3b 7d13 e13b
000003a0: ab2f 963a 757d 32bc 4d92 253b 232b 1bbc
000003b0: 1f4e 18bc 7a1c 93bb 9172 363c 99e6 e1bb
000003c0: 5645 b838 2565 943a e5f0 2cbb e06d de3b
000003d0: cff4 78ba 0e5c 88b8 6759 843c aa62 af3b
000003e0: 71e9 b7b9 5e37 02bc 21c8 01bc 2028 9e39
000003f0: 822e 563c 5f3b 6cb9 0da6 1f3b 4c17 1b3b

fc1.bias f4 [88]
0.015225711 0.010740025 -0.005194596 -0.02013678 -0.003049996 0.0006592901 0.0074441754 0.0015380201
0.017264483 -0.00020969353 -0.0017697251 -0.004536052 -0.009588822 0.0033824209 -0.0019228625 -0.018645756
-0.016873492 0.007956666 0.011338319 0.017271934 -0.017464295 -0.01172921 0.0005673182 -0.000971833
0.008628477 -0.00079992786 0.010715264 -0.010253892 -0.013183508 0.009589297 -0.0022816584 0.016969154
0.0045183524 -0.0072806566 -7.247284e-07 0.00010238525 0.010732723 -0.0048933784 -0.011660094 -0.0026117112
-0.0067892517 7.096867e-06 -0.00012222516 0.0014070612 -0.004162787 0.013713529 0.016395558 -0.009524352
0.0065474943 -0.000110122 0.021314628 -0.009570703 -0.004792833 -0.011203226 0.014795408 0.004547913
0.0016295945 0.010535039 0.0038383147 0.021322343 9.589268e-05 0.015795235 0.017282415 0.017740821
0.011471246 -0.005573229 0.010997282 -0.015470893 -0.011884728 0.004781032 -1.1027926e-09 0.012279115
0.01264822 0.006648072 0.004249674 -0.0035477204 0.00058886624 -0.0013042515 0.012335725 0.005097405
0.012255529 0.010944129 -0.0011173106 -6.222723e-10 -0.0009167458 -0.0055546258 -0.0068634427 0.013900371
00000000: 4375 793c eef6 2f3c 6e37 aabb e3f5 a4bc
00000010: 71e2 47bb 36d4 2c3a 45ee f33b 6497 c93a
00000020: 3f6e 8d3c 2ee1 5bb9 1ff6 e7ba 29a3 94bb
00000030: 6f1a 1dbc 9bab 5d3b 8f08 fcba fcbe 98bc
00000040: 473a 8abc ad5c 023c 5bc4 393c df7d 8d3c
00000050: 4811 8fbc df2b 40bc 14b8 143a 9cc2 7eba
00000060: 755e 0d3c 40b2 51ba 138f 2f3c f1ff 27bc
00000070: a4ff 57bc 6d1c 1d3c e087 15bb e502 8b3c
00000080: b00e 943b 9392 eebb f58a 42b5 aab7 d638
00000090: 4ed8 2f3c a258 a0bb fb09 3fbc 3e29 2bbb
000000a0: 5f78 debb a021 ee36 9129 00b9 246d b83a
000000b0: fd67 88bb b6ae 603c fa4f 863c 070c 1cbc
000000c0: 5d8c d63b 4cf1 e6b8 049c ae3c 70ce 1cbc
000000d0: 320d 9dbb bc8d 37bc 7068 723c a906 953b
000000e0: 1e98 d53a 289b 2c3c 3c8c 7b3b 32ac ae3c
000000f0: fe19 c938 0265 813c da93 8d3c 3355 913c
00000100: e5f1 3b3c a29f b6bb f22d 343c a179 7dbc
00000110: 2ab8 42bc 34aa 9c3b 1191 97b0 572e 493c
00000120: 7b3a 4f3c 12d8 d93b d940 8b3b df80 68bb
00000130: 255e 1a3a 6bf3 aaba c81b 4a3c 2208 a73b
00000140: 6acb 483c 014f 333c b972 92ba 850c 2bb0
00000150: c551 70ba 9403 b6bb bbe6 e0bb 62be 633c

fc2.weight f4 [1, 88]
-0.045767847 -0.09485781 -0.018081002 -0.022567967 0.06679128 -0.038824625 0.10220963 -0.02984598
-0.057895053 -0.051163897 -0.015259516 -0.014994184 0.02350235 -0.0970486 0.04725639 0.039215706
-0.066218525 -0.061406974 0.02290265 0.021407753 0.03420522 0.09264 0.002544392 -9.612956e-05
-0.007978915 -0.09234784 0.04368421 -0.09374266 0.1061404 -0.08657839 -0.01996013 0.026140494
-0.06323787 0.05731894 -0.020455305 -0.046850808 -0.031228201 -0.032701105 -0.012340431 0.06612508
-0.08141305 -0.0046168617 -0.041365374 -0.026137318 -0.020032182 -0.041574754 0.06271907 -0.06330754
0.08757256 0.004156292 0.0350496 0.04134072 0.046427123 0.021609878 0.100012675 0.10242073
0.07098306 -0.042589374 -0.01769963 0.041501533 0.029187351 0.01497569 -0.015691254 -0.060420714
0.03231691 -0.0041773184 -0.06813301 -0.00022060443 -0.05567354 0.06034622 0.002279659 0.08333396
-0.012058786 0.06803797 0.038559612 0.017094392 0.08883087 0.08399265 0.088243395 0.026319114
0.0760572 -0.0058858707 -0.034321137 0.0013476585 0.0008393017 -0.07924271 0.08821579 -0.098317824
00000000: 1177 3bbd d044 c2bd 9c1e 94bc 75e0 b8bc
00000010: dec9 883d 9206 1fbd 4853 d13d 8f7f f4bc
00000020: 5d23 6dbd 3c91 51bd 0d03 7abc 2aaa 75bc
00000030: 0088 c03c 6bc1 c6bd eb8f 413d a6a0 203d
00000040: 949d 87bd e185 7bbd 579e bb3c 505f af3c
00000050: c61a 0c3d 0aba bd3d d0bf 263b 2a99 c9b8
00000060: ffb9 02bc dd20 bdbd 37ee 323d 27fc bfbd
00000070: 2360 d93d 0350 b1bd 6d83 a3bc 9724 d63c
00000080: db82 81bd 44c7 6a3d e291 a7bc a2e6 3fbd
00000090: 49d2 ffbc 98f1 05bd 852f 4abc 966c 873d
000000a0: e3bb a6bd 0b49 97bb bd6e 29bd ee1d d6bc
000000b0: 881a a4bc 4a4a 2abd db72 803d 62a7 81bd
000000c0: 3e59 b33d 8131 883b 2b90 0f3d e354 293d
000000d0: 5e2a 3e3d 3307 b13c 72d3 cc3d f6c1 d13d
000000e0: 915f 913d 3272 2ebd d1fe 90bc 83fd 293d
000000f0: 501a ef3c 995c 753c f28a 80bc b67b 77bd
00000100: bc5e 043d e3e1 88bb 5289 8bbd 0d52 67b9
00000110: f009 64bd 992d 773d 5566 153b ffaa aa3d
00000120: 3792 45bc 7e57 8b3d aff0 1d3d 8a09 8c3c
00000130: f6ec b53d 5704 ac3d f4b8 b43d 2f9b d73c
00000140: e1c3 9b3d 43de c0bb 5294 0cbd eaa3 b03a
00000150: 9504 5c3a 004a a2bd 7baa b43d db5a c9bd
